2025-07-24 12:26:41 -> -----> Início treinamento DCGANKera3 <-----
2025-07-24 12:26:41 -> Criando o dataset...
2025-07-24 12:26:43 -> Criando o discriminador...
2025-07-24 12:26:44 -> Model: "discriminator"
┏━━━━━━━━━━━━━━━━━━━━━━━━━━━━━━━━━━━━━━┳━━━━━━━━━━━━━━━━━━━━━━━━━━━━━┳━━━━━━━━━━━━━━━━━┓
┃ Layer (type)                         ┃ Output Shape                ┃         Param # ┃
┡━━━━━━━━━━━━━━━━━━━━━━━━━━━━━━━━━━━━━━╇━━━━━━━━━━━━━━━━━━━━━━━━━━━━━╇━━━━━━━━━━━━━━━━━┩
│ conv2d (Conv2D)                      │ (None, 32, 32, 64)          │           3,136 │
├──────────────────────────────────────┼─────────────────────────────┼─────────────────┤
│ leaky_re_lu (LeakyReLU)              │ (None, 32, 32, 64)          │               0 │
├──────────────────────────────────────┼─────────────────────────────┼─────────────────┤
│ conv2d_1 (Conv2D)                    │ (None, 16, 16, 128)         │         131,200 │
├──────────────────────────────────────┼─────────────────────────────┼─────────────────┤
│ leaky_re_lu_1 (LeakyReLU)            │ (None, 16, 16, 128)         │               0 │
├──────────────────────────────────────┼─────────────────────────────┼─────────────────┤
│ conv2d_2 (Conv2D)                    │ (None, 8, 8, 128)           │         262,272 │
├──────────────────────────────────────┼─────────────────────────────┼─────────────────┤
│ leaky_re_lu_2 (LeakyReLU)            │ (None, 8, 8, 128)           │               0 │
├──────────────────────────────────────┼─────────────────────────────┼─────────────────┤
│ flatten (Flatten)                    │ (None, 8192)                │               0 │
├──────────────────────────────────────┼─────────────────────────────┼─────────────────┤
│ dropout (Dropout)                    │ (None, 8192)                │               0 │
├──────────────────────────────────────┼─────────────────────────────┼─────────────────┤
│ dense (Dense)                        │ (None, 1)                   │           8,193 │
└──────────────────────────────────────┴─────────────────────────────┴─────────────────┘
 Total params: 404,801 (1.54 MB)
 Trainable params: 404,801 (1.54 MB)
 Non-trainable params: 0 (0.00 B)

2025-07-24 12:26:44 -> Criando o gerador com ruido de tamanho: 128
2025-07-24 12:26:44 -> Model: "generator"
┏━━━━━━━━━━━━━━━━━━━━━━━━━━━━━━━━━━━━━━┳━━━━━━━━━━━━━━━━━━━━━━━━━━━━━┳━━━━━━━━━━━━━━━━━┓
┃ Layer (type)                         ┃ Output Shape                ┃         Param # ┃
┡━━━━━━━━━━━━━━━━━━━━━━━━━━━━━━━━━━━━━━╇━━━━━━━━━━━━━━━━━━━━━━━━━━━━━╇━━━━━━━━━━━━━━━━━┩
│ dense_1 (Dense)                      │ (None, 8192)                │       1,056,768 │
├──────────────────────────────────────┼─────────────────────────────┼─────────────────┤
│ reshape (Reshape)                    │ (None, 8, 8, 128)           │               0 │
├──────────────────────────────────────┼─────────────────────────────┼─────────────────┤
│ conv2d_transpose (Conv2DTranspose)   │ (None, 16, 16, 128)         │         262,272 │
├──────────────────────────────────────┼─────────────────────────────┼─────────────────┤
│ leaky_re_lu_3 (LeakyReLU)            │ (None, 16, 16, 128)         │               0 │
├──────────────────────────────────────┼─────────────────────────────┼─────────────────┤
│ conv2d_transpose_1 (Conv2DTranspose) │ (None, 32, 32, 256)         │         524,544 │
├──────────────────────────────────────┼─────────────────────────────┼─────────────────┤
│ leaky_re_lu_4 (LeakyReLU)            │ (None, 32, 32, 256)         │               0 │
├──────────────────────────────────────┼─────────────────────────────┼─────────────────┤
│ conv2d_transpose_2 (Conv2DTranspose) │ (None, 64, 64, 512)         │       2,097,664 │
├──────────────────────────────────────┼─────────────────────────────┼─────────────────┤
│ leaky_re_lu_5 (LeakyReLU)            │ (None, 64, 64, 512)         │               0 │
├──────────────────────────────────────┼─────────────────────────────┼─────────────────┤
│ conv2d_3 (Conv2D)                    │ (None, 64, 64, 3)           │          38,403 │
└──────────────────────────────────────┴─────────────────────────────┴─────────────────┘
 Total params: 3,979,651 (15.18 MB)
 Trainable params: 3,979,651 (15.18 MB)
 Non-trainable params: 0 (0.00 B)

2025-07-24 12:26:44 -> Quantidade de épocas: 50
2025-07-24 12:27:34 -> Terminando o processamento da época: 0
2025-07-24 12:27:57 -> Terminando o processamento da época: 1
2025-07-24 12:28:20 -> Terminando o processamento da época: 2
…
