2025-07-24 13:02:35 -> -----> Início treinamento DCGANKera3 <-----
2025-07-24 13:02:35 -> Criando o dataset...
2025-07-24 13:02:37 -> Criando o discriminador...
2025-07-24 13:02:38 -> Model: "discriminator"
┏━━━━━━━━━━━━━━━━━━━━━━━━━━━━━━━━━━━━━━┳━━━━━━━━━━━━━━━━━━━━━━━━━━━━━┳━━━━━━━━━━━━━━━━━┓
┃ Layer (type)                         ┃ Output Shape                ┃         Param # ┃
┡━━━━━━━━━━━━━━━━━━━━━━━━━━━━━━━━━━━━━━╇━━━━━━━━━━━━━━━━━━━━━━━━━━━━━╇━━━━━━━━━━━━━━━━━┩
│ conv2d (Conv2D)                      │ (None, 64, 64, 64)          │           3,136 │
├──────────────────────────────────────┼─────────────────────────────┼─────────────────┤
│ leaky_re_lu (LeakyReLU)              │ (None, 64, 64, 64)          │               0 │
├──────────────────────────────────────┼─────────────────────────────┼─────────────────┤
│ conv2d_1 (Conv2D)                    │ (None, 32, 32, 128)         │         131,200 │
├──────────────────────────────────────┼─────────────────────────────┼─────────────────┤
│ leaky_re_lu_1 (LeakyReLU)            │ (None, 32, 32, 128)         │               0 │
├──────────────────────────────────────┼─────────────────────────────┼─────────────────┤
│ conv2d_2 (Conv2D)                    │ (None, 16, 16, 128)         │         262,272 │
├──────────────────────────────────────┼─────────────────────────────┼─────────────────┤
│ leaky_re_lu_2 (LeakyReLU)            │ (None, 16, 16, 128)         │               0 │
├──────────────────────────────────────┼─────────────────────────────┼─────────────────┤
│ flatten (Flatten)                    │ (None, 32768)               │               0 │
├──────────────────────────────────────┼─────────────────────────────┼─────────────────┤
│ dropout (Dropout)                    │ (None, 32768)               │               0 │
├──────────────────────────────────────┼─────────────────────────────┼─────────────────┤
│ dense (Dense)                        │ (None, 1)                   │          32,769 │
└──────────────────────────────────────┴─────────────────────────────┴─────────────────┘
 Total params: 429,377 (1.64 MB)
 Trainable params: 429,377 (1.64 MB)
 Non-trainable params: 0 (0.00 B)

2025-07-24 13:02:38 -> Criando o gerador com ruido de tamanho: 128
2025-07-24 13:02:38 -> Model: "generator"
┏━━━━━━━━━━━━━━━━━━━━━━━━━━━━━━━━━━━━━━┳━━━━━━━━━━━━━━━━━━━━━━━━━━━━━┳━━━━━━━━━━━━━━━━━┓
┃ Layer (type)                         ┃ Output Shape                ┃         Param # ┃
┡━━━━━━━━━━━━━━━━━━━━━━━━━━━━━━━━━━━━━━╇━━━━━━━━━━━━━━━━━━━━━━━━━━━━━╇━━━━━━━━━━━━━━━━━┩
│ dense_1 (Dense)                      │ (None, 32768)               │       4,227,072 │
├──────────────────────────────────────┼─────────────────────────────┼─────────────────┤
│ reshape (Reshape)                    │ (None, 16, 16, 128)         │               0 │
├──────────────────────────────────────┼─────────────────────────────┼─────────────────┤
│ conv2d_transpose (Conv2DTranspose)   │ (None, 32, 32, 128)         │         262,272 │
├──────────────────────────────────────┼─────────────────────────────┼─────────────────┤
│ leaky_re_lu_3 (LeakyReLU)            │ (None, 32, 32, 128)         │               0 │
├──────────────────────────────────────┼─────────────────────────────┼─────────────────┤
│ conv2d_transpose_1 (Conv2DTranspose) │ (None, 64, 64, 256)         │         524,544 │
├──────────────────────────────────────┼─────────────────────────────┼─────────────────┤
│ leaky_re_lu_4 (LeakyReLU)            │ (None, 64, 64, 256)         │               0 │
├──────────────────────────────────────┼─────────────────────────────┼─────────────────┤
│ conv2d_transpose_2 (Conv2DTranspose) │ (None, 128, 128, 512)       │       2,097,664 │
├──────────────────────────────────────┼─────────────────────────────┼─────────────────┤
│ leaky_re_lu_5 (LeakyReLU)            │ (None, 128, 128, 512)       │               0 │
├──────────────────────────────────────┼─────────────────────────────┼─────────────────┤
│ conv2d_3 (Conv2D)                    │ (None, 128, 128, 3)         │          38,403 │
└──────────────────────────────────────┴─────────────────────────────┴─────────────────┘
 Total params: 7,149,955 (27.27 MB)
 Trainable params: 7,149,955 (27.27 MB)
 Non-trainable params: 0 (0.00 B)

2025-07-24 13:02:38 -> Quantidade de épocas: 100
2025-07-24 14:01:23 -> Terminando o processamento da época: 0 - Logs: {'d_loss': 0.3919256627559662, 'g_loss': 3.4224693775177}
2025-07-24 14:07:11 -> Terminando o processamento da época: 1 - Logs: {'d_loss': 0.5262832641601562, 'g_loss': 4.097959041595459}
…
